lstm_model.pth (torch, 206069 bytes, 9 tensors)

lstm.weight_ih_l0 f4 [256, 1]
000000 fb b6 3e bd 7d f1 eb 3d fc d3 fe bc 5c 6e b4 3c
       -0.046561223 0.115206696 -0.031106941 0.02202528
000010 d6 60 84 3d d5 69 90 3d 8d fd c1 3c 8d 60 86 3d
       0.064637825 0.07051436 0.023680473 0.06561384
000020 99 65 e8 bd 27 8d 0d 3d 43 06 47 3d ab c2 0e 3d
       -0.11347503 0.03455844 0.048589956 0.03485362
000030 4c 44 c5 3d 6b 85 ae 3d 33 31 cb 3c 67 77 79 3d
       0.09632167 0.08521541 0.024803733 0.060904887
000040 df cb bd 3d cf 09 93 3d c0 0a ba 3d 4b 49 14 be
       0.09267401 0.07179605 0.09084082 -0.14481084
000050 33 fa 28 3e 6b c7 2c bd df 53 24 be 70 65 c6 3b
       0.16501693 -0.042182367 -0.1604762 0.0060545728
000060 64 bc b1 3d 6a 45 89 bd da 89 16 3e a3 8e ac 3d
       0.08678511 -0.06702693 0.14701024 0.08425643
000070 ea f8 2d 3d 8b 3e 18 3e e0 1b 19 bd 19 70 06 bc
       0.04247371 0.14867608 -0.0373801 -0.008205437
000080 e6 37 dd bd aa 08 22 3e 6d 71 9c 3d 9f 63 1e 3e
       -0.108016774 0.15823618 0.07638822 0.1546769
000090 2f 84 85 bc 2e 95 2b 3e b4 44 ad bd f4 68 77 bd
       -0.016298382 0.16756126 -0.0846037 -0.060402825
0000a0 fe f4 0d 3e d7 b4 8d bd 53 1b 6a bd c0 ee 14 3e
       0.13862988 -0.06919258 -0.057154965 0.14544201
0000b0 2b 86 51 3e 28 61 f8 3d 47 e6 e6 3d 99 0b f0 3c
       0.20461337 0.12127906 0.11274391 0.029302405
0000c0 3f 45 ce bc a9 1f 49 bd 1d 69 ad bb db f0 7c bd
       -0.025179503 -0.04910246 -0.0052920715 -0.061753135
0000d0 f3 2c 47 bc 93 ac ec 3d f1 bd b0 bd 6b 44 21 3e
       -0.012156713 0.115563534 -0.086299784 0.15748756
0000e0 25 0e 98 3d c6 0b ce 3c 62 75 76 bd 1f c4 8f 3d
       0.07424573 0.025152098 -0.06017054 0.07019829
0000f0 7e 21 07 3e 3f bf 02 3e 33 5b 90 3d e8 b3 94 bd
       0.1319637 0.12768267 0.07048645 -0.07260877
000100 b9 7f 43 3d f0 6e 29 3e 21 62 0d be de 99 7f bc
       0.047729228 0.16546226 -0.13806964 -0.01560065
000110 b6 6d 9b 3d 65 70 0c bd dc 1c 9e bd e9 e1 a3 3c
       0.07589285 -0.034286875 -0.07720348 0.020005183
000120 fc 07 a7 bd 78 31 7b bb da 01 b3 3d da 5b 33 be
       -0.0815582 -0.0038329046 0.087405875 -0.17515507
000130 41 d5 2d 3a 9a a9 c5 bd b8 28 e5 3d ae 55 52 bd
       0.00066312036 -0.096514896 0.11189407 -0.05135124
000140 9b 45 c7 3b 76 3a 3b 3e da 88 58 3d 61 c4 46 bd
       0.0060812957 0.1828402 0.052864887 -0.048527125
000150 42 8d 04 3e ce 2f a9 bd 80 6d 86 bd 1f 60 2d bd
       0.1294451 -0.08261071 -0.06563854 -0.042327996
000160 93 6a 27 bd 89 c1 5e bd 27 42 a9 3d a3 d1 8a 3d
       -0.04087312 -0.05438379 0.08264571 0.06778266
000170 67 0e 14 3e b3 d7 51 3c 02 bb 96 3d b9 0f ab bd
       0.14458619 0.012807774 0.07359888 -0.08352608
000180 4b 31 17 be f0 23 26 bd f2 89 21 3d 51 a7 0d bd
       -0.14764898 -0.040561616 0.039438196 -0.034583393
000190 7d 04 87 3c 7b 34 0e 3e 5f e3 b0 bd e9 f6 1d 3e
       0.016481632 0.13887207 -0.086371176 0.1542622
0001a0 c0 13 07 3e 24 4d 70 bd 5a d0 a7 3b 58 67 1e 3d
       0.13191128 -0.058667317 0.005121273 0.038672775
0001b0 4d 3e 37 3e ba 62 73 3d 8a 27 2d 3d 6c 12 0a 3e
       0.1789486 0.059420325 0.042274036 0.1348359
0001c0 e9 66 0d 3e 24 1f 1c be ac 46 6b bc 18 8a e6 bd
       0.13808788 -0.15246254 -0.014360111 -0.11256808
0001d0 0d 38 2a 3d cd a7 88 bd 4f df d3 bc 33 c3 a9 3c
       0.04155736 -0.066726305 -0.025863318 0.020722961
0001e0 2d 41 d9 bc e5 a1 16 3d ca b3 22 3e af 5c 26 bd
       -0.026520336 0.03677549 0.15888897 -0.040615734
0001f0 3c 53 3f 3c ec 31 5d bd 03 d5 c9 bd 91 06 8c bc
       0.011677559 -0.054002687 -0.09855082 -0.017092975
000200 75 c4 ea 3d bb 31 37 be 24 6e ba bd 23 62 95 3d
       0.114632525 -0.17890064 -0.09103039 0.07294109
000210 d7 0c 31 be 14 25 c7 bd 23 20 1a be 50 d9 d0 bd
       -0.17290054 -0.09723869 -0.15051322 -0.10197699
000220 38 ce fb bb 32 69 95 bd bb 8e 96 be 05 48 89 bd
       -0.0076844953 -0.07295455 -0.2940577 -0.0670319
000230 e5 1b 35 3e 54 e5 92 3d d9 69 9a 3d 23 23 5a be
       0.17686422 0.07172647 0.0753972 -0.21302466
000240 e2 c9 76 3e 90 c1 0d 3e 59 3e 2d 3e ac e2 d3 3b
       0.2410045 0.1384337 0.16918315 0.0064662304
000250 cb 32 92 be 5f 8f 7d 3e e6 9c 86 be 2d cf d1 bd
       -0.28554377 0.24761723 -0.2629158 -0.10244594
000260 96 9f 04 3e 24 4a be 3d 4e d0 b6 3d c0 d8 c3 3d
       0.12951502 0.09291485 0.0892645 0.09562826
000270 65 c7 57 be 97 59 13 3e e0 21 12 be c7 ea 98 3d
       -0.21072157 0.14389645 -0.14270735 0.07466655
000280 b8 6e 77 be 8a 99 7f be 8f bd 9b be 17 fa 82 be
       -0.2416333 -0.24960914 -0.3041806 -0.25581428
000290 27 1b 75 be cd f3 f4 bc 8a 70 ef 3d ad 9e 80 3e
       -0.23936139 -0.02990141 0.11691387 0.2512106
0002a0 96 45 b0 bd 64 28 a1 bc 14 07 52 3d 82 95 8c be
       -0.086070225 -0.01967258 0.05127628 -0.27457815
0002b0 89 2c 45 be ce 99 26 3e d3 97 1a 3e 9b 49 52 3e
       -0.1925527 0.1626961 0.15096979 0.20535891
0002c0 f7 52 34 3e 36 00 08 3e 4a ab f3 bc dd 10 d7 bd
       0.17609774 0.1328133 -0.029744763 -0.10501263
0002d0 a2 c9 2b be f7 9a 95 bd 5f 92 54 3e 57 a9 8a 3e
       -0.16776136 -0.07304948 0.20758961 0.2708232
0002e0 2c 52 7b be 3d d3 89 3e 59 7e 84 3e f7 86 88 3c
       -0.24543065 0.26918975 0.25877646 0.016665919
0002f0 d8 23 fe bd fd aa a0 be f9 6e 57 3e b0 ee 6e be
       -0.124091804 -0.31380454 0.21038426 -0.2333324
000300 bc 7b af 3d 44 44 62 3d 6a 87 f7 bd f8 18 e5 bc
       0.08568522 0.055240884 -0.12086375 -0.027966008
000310 86 80 31 3c 1d 33 ca bd bc ab 30 3d de d0 c5 3d
       0.010833865 -0.0987303 0.04313253 0.09658979
000320 0e 7b 0b bd b7 63 8d bd 69 b1 28 bd c7 23 af bd
       -0.0340529 -0.06903785 -0.041184817 -0.08551746
000330 20 66 d2 3d 7e bf 81 3d 9c 15 25 bb 65 6e 20 bc
       0.10273385 0.06335352 -0.0025189882 -0.009791945
000340 a0 da 06 3d b5 85 10 3c 5c d7 fc bd 3f 26 66 3d
       0.03292334 0.008820941 -0.12345764 0.056188818
000350 55 ce bf 3d 43 f7 14 be f8 23 a5 bd e6 bf 5d bd
       0.093655266 -0.14547448 -0.08063501 -0.054138087
000360 06 cd f1 3c e9 61 02 be b5 5e 8b 3d 14 b0 86 3d
       0.029516708 -0.12732662 0.06805173 0.06576553
000370 11 81 86 3d 54 21 03 3e d8 f8 0d bc 10 1f ce bd
       0.06567586 0.12805682 -0.008665286 -0.100645185
000380 29 1d 09 3c 2e 5e 8b 3d 31 3e d5 3b 6c b7 2d 3e
       0.008368769 0.06805073 0.006507658 0.16964501
000390 11 a0 6b 3d 6a 77 46 3a 06 5c c2 bd 74 6c 34 3e
       0.057525698 0.00075708947 -0.09490208 0.17619497
0003a0 69 dc dc bc eb d9 12 3e 69 47 1e be 1c 40 0d 3e
       -0.026960569 0.14340942 -0.15456928 0.13793987
0003b0 0a f8 1b bd 12 64 1c 3e bd 72 0d 3d 74 d3 6f bb
       -0.038078345 0.15272549 0.03453325 -0.0036594542
0003c0 e8 6c ba 3d 58 5c ef bd c1 7c a1 bc 8c 71 6c bd
       0.091028035 -0.11687535 -0.019712808 -0.057725474
0003d0 b8 dd 75 bb c0 86 ca bd 6d b4 91 bd 20 28 0e 3e
       -0.0037516188 -0.09888983 -0.071144916 0.13882494
0003e0 d0 6a 67 bd aa ac 2a 3e 7e 40 e5 3a de 72 f1 bd
       -0.05649835 0.16667429 0.0017490534 -0.11789487
0003f0 55 c3 ef 3d d3 d0 0b 3d 0a a2 94 bd 8d cf 80 3d
       0.117071785 0.034134697 -0.07257469 0.06289587

lstm.weight_hh_l0 f4 [256, 64]
000000 c7 5b ac 3b 47 8e 8d 3d c5 22 c8 bd 9e fa cd 3d
       0.005259964 0.06911903 -0.09772257 0.10057567
000010 6a 9a d7 3d 2f 34 a4 3b 0b be 0f 3d ff 04 ff bd
       0.10527499 0.0050111036 0.03509335 -0.12452125
000020 aa 4a 90 bb 44 c2 81 3c 2b 9a 94 3d 20 b4 c5 ba
       -0.004403432 0.015839703 0.07255968 -0.0015083589
000030 64 fc eb bd 1f 4d e0 3d 50 e4 f4 bd 74 0f 1d bd
       -0.11522749 0.1095221 -0.1195761 -0.038344815
000040 e6 23 6f bc 4e 14 4e 3d b3 43 27 3d ba 38 d0 bd
       -0.014595961 0.050312333 0.040836047 -0.1016707
000050 83 79 93 3d e9 8e 35 3d 40 aa 93 3d 71 9d f0 3d
       0.07200911 0.044325743 0.07210207 0.117487796
000060 74 b2 ca bd 7b a5 05 3d 34 11 ee bc 35 ee c9 3b
       -0.098973185 0.032628518 -0.029060937 0.0061624297
000070 af 89 e3 bd f6 50 c5 3a c4 b2 2d bd b2 5c d7 bd
       -0.111102454 0.0015054035 -0.042406812 -0.10515727
000080 f0 ef c0 3d 76 e0 af 3d 7c 69 e9 bc bf e8 85 3d
       0.094207644 0.085877344 -0.028492682 0.065385334
000090 44 87 55 bd e4 89 83 3d de c7 0a 3e 4c e5 ae 3d
       -0.052130952 0.06422785 0.13552806 0.08539829
0000a0 68 bd 92 bc 0e 33 81 bd 86 29 60 3d 9c 72 07 bd
       -0.017912582 -0.06308566 0.0547271 -0.033068284
0000b0 d3 8e e8 3d 37 12 fd bd c8 63 25 bd 57 47 b5 bd
       0.113553666 -0.1235699 -0.040378362 -0.088514976
0000c0 29 17 93 bd a0 77 b9 3d 91 20 bf bd d6 d4 9c bd
       -0.07182152 0.0905602 -0.093323834 -0.07657783
0000d0 c9 10 b8 3d 5b 40 cf 3d 89 c3 85 3d 54 a3 8b bd
       0.089875765 0.10119697 0.06531436 -0.06818262
0000e0 25 94 65 bd f5 0f 57 3c 2e ae 97 3d 50 b6 31 3c
       -0.056049485 0.013126363 0.07406269 0.010846689
0000f0 3e 86 6c 3d d0 8c 93 3d c8 fb d9 3d 16 33 f5 bd
       0.05774521 0.07204592 0.106437266 -0.119726345
000100 b9 47 e5 3d 09 81 cb bd a6 9c 60 bc b5 14 8f 3c
       0.11195321 -0.09936721 -0.013709223 0.017465929
000110 78 35 67 bd a7 7c 4b 3d 2e d4 94 3d 4b f5 2e bd
       -0.056447476 0.049679425 0.072670326 -0.0427144
000120 d5 f5 a6 bd bc ae da bd 75 be f7 bd cb 88 ae bd
       -0.081523575 -0.10677859 -0.12096874 -0.08522185
000130 13 03 29 3d 8e 71 29 ba e8 32 d1 bc 86 4f b4 3d
       0.041262697 -0.00064637593 -0.02553697 0.088042304
000140 5f ae ef bd b3 f7 89 bc 4e cb 2d bc b5 6f 89 3d
       -0.117031805 -0.016841745 -0.010607554 0.067107596
000150 db 22 78 3d 3c 3a ed bd bd df a6 bc 0b 75 80 3d
       0.060580116 -0.11583373 -0.020370359 0.06272324
000160 21 49 e1 bc b2 2a e2 bc d0 ba ca bc 65 76 f5 bb
       -0.02750069 -0.02760825 -0.024747282 -0.0074909204
000170 12 3a d8 3c bb fd c4 3d 57 ab cc bd cf 44 e2 bd
       0.026394878 0.09618708 -0.09993618 -0.110482804
000180 01 ab 0b 3e ec 24 d0 bd 6f 26 85 bd 81 0c 56 3d
       0.13639452 -0.10163292 -0.06501471 0.05225802
000190 c4 eb 2c bd 49 d8 61 bd 3a 34 95 bd 6a 06 b9 bc
       -0.04221703 -0.055137906 -0.07285352 -0.022586066
0001a0 2a c3 83 bd 83 23 05 3d d9 41 b3 3d f6 27 c4 3d
       -0.06433709 0.03250457 0.08752794 0.095779344
0001b0 29 53 81 bd 90 ac 3c 3c cf 97 a8 bc 67 62 eb bd
       -0.0631469 0.0115157515 -0.0205802 -0.11493378
0001c0 48 4d 60 3c eb d7 3c bd fb 3b d1 3c 57 7c f2 bd
       0.0136903 -0.046104353 0.025541296 -0.11840122
0001d0 e5 00 7f 3d 68 f8 a2 bc 26 11 eb 3d e9 6a fc bd
       0.062256712 -0.01989384 0.1147788 -0.12325079
0001e0 28 5a f0 3d 50 00 da bd ef 8f 95 bd 36 43 a9 3d
       0.11735946 -0.10644591 -0.07302844 0.082647726
0001f0 4d 64 0f bd 12 69 c5 bc 07 a5 a5 3b e4 d6 91 3d
       -0.035007764 -0.024097953 0.005055073 0.07121065
000200 91 6a be bd af e5 99 3d bd a1 d2 3d 77 0e a4 3d
       -0.0929767 0.07514512 0.102847554 0.080105714
000210 f4 5a 46 bc 58 fb e7 bc 68 6a 8f bb 9e 69 ce 3d
       -0.012106646 -0.028318092 -0.0043766983 0.10078739
000220 e2 d8 ce bd 75 23 02 bd 2d 6a c8 3d 03 6d 93 3c
       -0.10099961 -0.031772096 0.097858764 0.017996317
000230 e1 54 d6 bd 0b 71 39 3d d7 5a 88 bd 2a e3 80 3d
       -0.10465408 0.04527382 -0.06657951 0.06293328
000240 65 9e 12 3c 8a f2 62 3d d2 25 9a 3b 75 e7 96 bc
       0.008948897 0.055407085 0.0047042156 -0.018420914
000250 07 35 cd 3d e8 2f 9a 3d 18 77 b7 bd 16 1b 0d 3d
       0.1001988 0.07528669 -0.08958262 0.03444966
000260 83 6f b5 bc 75 38 61 bd 29 f5 73 bd 07 42 85 bc
       -0.0221479 -0.054985482 -0.059559975 -0.016266836
000270 77 ad 84 bc 01 71 a7 3d c1 23 53 bd f0 85 df bc
       -0.016195996 0.08175851 -0.05154777 -0.027285546
000280 11 f9 9c bd 99 d1 a9 bc 3e 08 13 3e 05 c9 08 3e
       -0.07664693 -0.020729827 0.14358613 0.13357933
000290 fe 01 6a 3d 2b d1 39 bd 79 f8 e7 bc 3f 8d 8f 3d
       0.057130806 -0.045365494 -0.028316723 0.070093624
0002a0 36 3a 95 3d 38 81 cc 3d 84 8b b4 3d 41 93 4a 3d
       0.072864935 0.09985584 0.08815673 0.04945684
0002b0 e5 73 c1 3b 7b 75 0e bc 1d 88 a4 bc ba af cf bc
       0.0059037083 -0.008695002 -0.020084435 -0.025352348
0002c0 6f b4 8b 3d b6 4b c9 bd ee 0c 09 3d 32 68 a4 bd
       0.06821524 -0.09828894 0.033459596 -0.08027686
0002d0 76 31 bc 3d e7 c1 f2 3b e7 94 1e bd 8a 98 6c bd
       0.091891214 0.007408369 -0.038716223 -0.05776266
0002e0 95 42 e7 3d 51 bf 43 be b6 83 8d bd 43 86 b0 bc
       0.112919964 -0.1911595 -0.069098875 -0.021548396
0002f0 55 c6 64 3d 99 f0 ac 3d 00 ab 9a bd 52 8d c4 3d
       0.055853207 0.08444328 -0.07552147 0.09597267
000300 b7 d8 96 3d 39 f8 57 bd 67 37 f0 bd 3b c7 f6 bd
       0.07365554 -0.052726958 -0.11729317 -0.12049719
000310 ca 8b 44 bc 2a 27 c8 bc 35 8b f3 bc 5f 87 93 bc
       -0.011996219 -0.024432737 -0.029729465 -0.018008886
000320 db 22 b8 bd 9f ae 03 be f8 d6 04 bd 13 83 03 bd
       -0.08991023 -0.12859581 -0.032431573 -0.032107424
000330 fb 11 86 bd 50 54 f8 bd 16 ce fd bc 17 da c2 bd
       -0.06546398 -0.12125456 -0.030982058 -0.095142536
000340 8c fd 6e bd 62 9b fb 3d f3 34 d4 bd 8b e9 8f 3a
       -0.05834727 0.12285496 -0.10361662 0.0010979635
000350 04 c5 98 3d 05 95 9c bd 67 c0 72 bd 84 23 84 bd
       0.07459453 -0.07645611 -0.05926552 -0.064520866
000360 8a f9 90 bc 6e 84 35 bd 93 86 9e 3d 01 be 9c bd
       -0.017697114 -0.044315748 0.07740512 -0.07653428
000370 33 b9 31 3d 38 9b c3 3c de 7d a7 bd 0e 1c f1 3d
       0.04338951 0.023877725 -0.08178304 0.11772929
000380 3b 51 d4 3d a5 e5 e9 3c 0b 71 23 be 92 01 d5 3d
       0.10367056 0.028551886 -0.15961091 0.1040069
000390 19 e6 07 be 82 3e e9 bd 47 c0 3b 3d 61 44 ca 3c
       -0.13271369 -0.113888755 0.045837667 0.024690809
0003a0 7f 1f 0b 3d 49 81 11 bd 7a 21 8e bd d0 c2 0a be
       0.033965584 -0.035523687 -0.06939979 -0.13550878
0003b0 22 df 7f 3b ae df 2c bd f8 fe cd 3d 14 0e 97 3d
       0.003904291 -0.042205505 0.10058397 0.07375732
0003c0 5a 54 3b 3d 39 6e b3 3c 24 33 f2 bd 5f 23 18 3d
       0.04573474 0.021903144 -0.118261606 0.037143108
0003d0 19 7c b9 3d c1 8c bf bc ad bb cb 3d 14 19 ca 3d
       0.09056873 -0.023382546 0.09947906 0.098680645
0003e0 56 d4 ac 3d 58 87 ab 3d d2 e4 aa 3d 76 82 52 3d
       0.08438937 0.08375424 0.08344425 0.05139395
0003f0 08 4c a1 3d c7 a0 f9 bc 87 3f 14 3c 9a 23 50 3c
       0.0787583 -0.030472172 0.009048349 0.012703801

lstm.bias_ih_l0 f4 [256]
000000 10 f3 4c 3c f2 86 9a bd f4 06 d7 bc 4e 2e 2d bd
       0.0125091225 -0.0754527 -0.026248433 -0.042280488
000010 27 95 1f 3c bc b4 03 bc 4d 83 d5 bc d7 e8 3a bc
       0.0097401505 -0.008038696 -0.026063586 -0.011408052
000020 c8 c7 53 3d b1 65 19 bc 85 ec 9e bc 81 da 7d bc
       0.051704198 -0.009362624 -0.01939989 -0.01549399
000030 b8 d6 b3 bd 94 f5 78 3a c1 2f 52 3d 11 b8 f4 3c
       -0.08781189 0.0009497043 0.051315073 0.029872926
000040 a0 a0 12 3d 0d f9 62 3c 39 6b 94 3d 32 3f 1c be
       0.035797715 0.013853324 0.072470136 -0.15258482
000050 d0 a5 19 3e b2 ac eb bc ed ba d9 bd 7f 40 a6 bd
       0.15004659 -0.028768871 -0.106313564 -0.081177704
000060 82 a4 61 3d 4a ce e0 3d c6 bc 63 bd 56 1c 08 bd
       0.055088528 0.109768465 -0.05559995 -0.03323015
000070 5a 6d 33 3c 0a 48 43 39 90 1d b3 bd 72 d5 2f bd
       0.010951364 0.00018623486 -0.08745873 -0.042928167
000080 35 31 1a 3e 15 7d 96 bd 0d e7 47 3e 44 cf bf 3b
       0.15057833 -0.07348076 0.19521733 0.0058535654
000090 ea cd d4 bd 70 78 a2 3d bf 56 a9 3d 2f 59 e1 3d
       -0.103908375 0.07933128 0.08268499 0.110033385
0000a0 ff b4 97 bd 04 54 9e 3d 64 35 11 be 25 d6 08 3e
       -0.07407569 0.077308685 -0.14180523 0.1336294
0000b0 3b 8e 24 3d 8d dd df bc af c5 98 bc 03 0e af 3d
       0.040174704 -0.027327323 -0.01864895 0.085475944
0000c0 da d5 86 3d 8e c1 c2 bc 5c 40 16 be 89 91 1a be
       0.06583758 -0.023773935 -0.14672989 -0.1509458
0000d0 e1 09 1a 3d 04 03 05 be 01 a8 54 bd 74 f4 62 3d
       0.037607078 -0.12989432 -0.051918034 0.05540891
0000e0 9b dc dd 3d 6e 77 38 bd 8f 48 c3 bd 0b fe 65 3d
       0.10833093 -0.045035772 -0.09535324 0.056150477
0000f0 b1 b3 a5 3b 33 16 c0 bc af 1f e8 3d d6 3d 27 bd
       0.0050568213 -0.023448085 0.11334168 -0.040830456
000100 53 21 cd b9 c1 4f e9 bb 94 04 f3 bc af 38 92 bd
       -0.00039125475 -0.007120103 -0.029665269 -0.07139718
000110 dd b9 93 3b 3c 03 89 3d b5 48 3d bb 50 a3 70 3d
       0.0045082406 0.0669007 -0.0028882448 0.058749497
000120 44 fe 19 3c 68 34 c5 3d 13 d7 1c 3e 4c 96 7a bc
       0.009399001 0.09629136 0.1531642 -0.015294623
000130 c5 83 f1 3a b3 f4 4f 3d 82 02 d8 bd 02 7e e9 bd
       0.0018426111 0.050770473 -0.10547353 -0.11400987
000140 61 ee 77 3d d6 2a d2 3d 17 a4 0f be 84 e3 b3 bb
       0.06053007 0.102620766 -0.14027439 -0.0054897685
000150 9d 94 12 3d 0c 0f 01 3e 05 ad 25 39 bd f7 65 3d
       0.03578626 0.12603396 0.00015800081 0.056144465
000160 6f 19 ea bd ad 69 91 3d 25 7e 8e bc 6c dc 9e 3d
       -0.11430632 0.07100234 -0.017394135 0.07756886
000170 f5 b2 3d 3d 7b ed e5 bd bf ae 05 be 78 77 e0 bd
       0.046313245 -0.112269364 -0.13054942 -0.10960287
000180 4a ef 80 3d 60 5f c1 3d d5 be b8 3d 34 52 a8 bd
       0.06295641 0.094420195 0.09020773 -0.08218804
000190 30 32 a3 3a 45 9b 13 be 30 c8 91 3c 25 f5 ce bd
       0.001245087 -0.144147 0.017795652 -0.10105351
0001a0 dc 60 04 be 42 fc c8 bc 9f 89 ef bc 67 c7 e2 3c
       -0.12927574 -0.024534348 -0.029240428 0.027682973
0001b0 e0 d6 65 3d eb 2e f8 bc 27 d4 ab 3d 66 43 9a 39
       0.056113124 -0.03029581 0.08390074 0.00029423385
0001c0 59 02 09 be 2a f8 1b be e9 13 1a be 54 b9 91 bc
       -0.13379802 -0.15231386 -0.15046658 -0.017788567
0001d0 ee da 86 bd da 81 ec bd 6f dc 54 bd 76 a9 92 bd
       -0.06584726 -0.11548205 -0.051968034 -0.07161228
0001e0 35 d0 d3 3d 98 21 f6 bd da 0f ea ba 2b 7f cc bd
       0.10342447 -0.12018126 -0.0017857507 -0.09985193
0001f0 72 fd 53 3c 32 69 3a 3e f1 e7 68 bc 0d 9a b0 3d
       0.012938844 0.18204191 -0.014215455 0.08623133
000200 a9 24 a6 bc b2 01 5f bc 50 b7 4d bd bc 8b c3 3b
       -0.020281153 -0.013611244 -0.05022365 0.0059675854
000210 c1 b8 ad 3d af 62 e0 3d 77 9b cc 3b 29 2a 95 3d
       0.08482505 0.109563224 0.006244119 0.07283432
000220 ab 5b 12 3d 2b 82 62 3d c4 99 e4 bc 31 05 ed 3c
       0.035731953 0.05529992 -0.027905352 0.02893314
000230 5b 30 b5 3b 95 62 f1 bc 98 a2 d0 3c f9 30 30 bd
       0.005529446 -0.029465953 0.025468156 -0.043015454
000240 60 1d 93 3d 5f 9a ad 3d e5 21 9d 3d 66 1c 2c 3c
       0.07183337 0.084767096 0.076724805 0.010504818
000250 a0 a5 95 3d 44 e3 3f bd ee a6 60 bd 61 76 ad 3d
       0.07306981 -0.046847597 -0.054846697 0.084698446
000260 15 35 ce bd 9f b4 c6 bc 1e 13 f3 bc 4d bc ad 3d
       -0.10068718 -0.024256049 -0.029672202 0.08483181
000270 80 e0 79 bd 29 29 a4 bb 0f 8b 7a bd 4b 7f b3 3d
       -0.061005116 -0.0050097895 -0.061167773 0.087645136
000280 8a 08 dc 3d 8a 2f a2 bd dc 1f 87 3d ec 7b 87 bb
       0.10743816 -0.079192236 0.065978736 -0.0041346457
000290 7e 97 5c bd 85 73 16 bd ec 21 bd bd 91 f0 da bc
       -0.05385541 -0.03673126 -0.09234986 -0.02672604
0002a0 97 52 ad bd 49 bb 44 3c 0e 76 98 3d 2c 39 de 3d
       -0.084630184 0.012007543 0.07444392 0.108507484
0002b0 d1 be 4d bd e0 1e 18 bc 06 c3 44 bc 08 01 b8 3d
       -0.050230805 -0.009284705 -0.012009388 0.08984572
0002c0 16 31 86 bc 9c 52 ce bd 9c ed f4 3c 9a 41 89 3d
       -0.016380828 -0.1007435 0.029898457 0.06701966
0002d0 38 26 65 bd 7a a9 dd 3b 73 06 58 bd ac c4 16 bd
       -0.05594465 0.006764588 -0.052740525 -0.036808655
0002e0 79 94 df 3d ef 75 89 3d c8 8a a7 bd 20 1d 31 bd
       0.10916991 0.06711947 -0.08180767 -0.043240666
0002f0 bb 97 3e bd ae 50 14 3b 11 05 1e bd 52 3a 01 3d
       -0.04653142 0.0022631097 -0.03857905 0.03154976
000300 de 3b 1b 3c 39 d2 5c ba d5 dd 96 bd 6f 95 44 3d
       0.009474723 -0.00084236596 -0.0736653 0.047994073
000310 20 8f d2 bc 2a 0b 12 be 58 ef c5 bd 24 ee 8d bc
       -0.025703013 -0.14262071 -0.09664792 -0.017325468
000320 6a b5 96 3d 65 85 ea 3c c7 2d 05 3e ec db dc bd
       0.07358821 0.02862806 0.13005744 -0.10784134
000330 b9 51 9e 3d 27 41 87 bc 58 28 5a b8 7d 41 f7 bd
       0.07730431 -0.01651056 -5.2012823e-05 -0.12073038
000340 3d 35 17 3e 21 87 e6 bd 8d 6c 02 bc b6 58 dd 39
       0.14766403 -0.112562425 -0.007960451 0.000422185
000350 ab 7c 0b 3e 71 7b 9c bd 90 81 f6 3d 69 54 19 3d
       0.13621776 -0.07640732 0.12036431 0.037434015
000360 8a ba cf 3b e0 8e 1a 3d e8 93 2a 3d c8 e7 bf 3b
       0.006339376 0.037733912 0.04164496 0.005856488
000370 64 61 8a bd d8 28 14 be f2 c2 85 bc b2 4f d8 3d
       -0.06756857 -0.14468706 -0.016328309 0.10562076
000380 34 13 03 3e c4 eb 13 3b ec 4d 77 3d 19 4c 31 3d
       0.12800294 0.0022570947 0.060377046 0.043285463
000390 c4 96 12 bd 1d 2d 06 be fb 06 f7 bc ad 2d 95 bd
       -0.035788313 -0.13103147 -0.030154696 -0.072841026
0003a0 f6 f2 3b bd 13 fe db bd aa e5 43 bb 90 3c 8d bd
       -0.045886002 -0.1074182 -0.002989153 -0.06896317
0003b0 fb b9 fb bd 70 e0 ee bc 4c 29 0f 3d bb 67 0f bd
       -0.12291332 -0.029159755 0.034951493 -0.035011034
0003c0 ed 10 d7 bd 45 65 57 3d 5d 77 45 3d 63 35 b5 3d
       -0.10501275 0.052586813 0.048209537 0.08848073
0003d0 21 dc 93 bd f5 19 83 3d 26 2a 8e 3d 08 ba 59 3c
       -0.07219721 0.06401435 0.06941633 0.013288982
0003e0 18 45 ce 3c 13 4d 3f bd 86 0f bd bd 76 d0 08 be
       0.02517943 -0.046704363 -0.092314765 -0.13360772
0003f0 95 0f b8 3c 1e 81 30 3e 1c 7c 39 3d 3c 64 78 3d
       0.022468368 0.17236754 0.045284376 0.060642466

lstm.bias_hh_l0 f4 [256]
000000 e0 6a 89 3c cd 70 f8 3c 24 75 02 3d 65 c7 9b bd
       0.016774595 0.030327225 0.031849995 -0.07606391
000010 d5 fc 00 bd 7e 99 f3 bd c1 ce 4c bd 6f f7 0c 3d
       -0.03149112 -0.11894511 -0.050001863 0.03441566
000020 18 ca 54 3d b3 78 34 bd 3f 4f 1d 3e 9b 53 18 be
       0.051950544 -0.04406042 0.15362261 -0.14875643
000030 ca 3d d7 bd c4 f9 a8 3a b5 81 1e bc 16 73 01 be
       -0.10509832 0.0012891819 -0.009674479 -0.12641558
000040 09 a7 14 3e 3e 43 06 3d 0b c9 47 3d d4 b1 58 3d
       0.14516844 0.03277897 0.048775714 0.052903965
000050 d0 62 78 bd 8c 7b b9 3d d9 23 a5 bc 0e e4 92 3c
       -0.06064111 0.09056768 -0.020158695 0.01793101
000060 60 db 25 bd ae ed ed bd 01 a7 27 3d d5 54 2b bd
       -0.040492415 -0.116175994 0.04093075 -0.04182895
000070 ed 21 ca bd 2a 2f 34 bd f3 77 fe bd 96 ee 98 3d
       -0.09869752 -0.04399029 -0.12425222 0.07467382
000080 da 91 d6 3d 45 8a 91 ba 57 29 da bc 7e 4f a7 3b
       0.10477038 -0.001110383 -0.02663104 0.0051059118
000090 69 db 13 3c 8e 42 8b bd 7c a3 22 3d db ac 99 bd
       0.009024479 -0.06799804 0.039706692 -0.07503673
0000a0 9d ee ae bd c6 7e 96 3d 04 f1 53 bc b7 ed 13 3e
       -0.085416056 0.07348399 -0.012935881 0.1444615
0000b0 2f f1 2b bc 6d fd ac 3c d5 7a 84 bd c0 48 9a 3b
       -0.010494514 0.021116937 -0.06468741 0.0047083795
0000c0 21 f7 73 bd 12 9b 2d bd 88 16 c1 3c 0a 8a 69 3d
       -0.059561852 -0.042384215 0.023570314 0.05701641
0000d0 27 62 95 bd 5f 65 43 bd 41 96 38 3c 24 79 ff 3d
       -0.07294112 -0.047704097 0.011266292 0.124742776
0000e0 0d b6 bc 3d e6 d7 02 3e 1a 99 2e 3d 49 51 d0 bd
       0.09214411 0.12777671 0.042626478 -0.10171754
0000f0 34 25 d5 3c bb 4c 26 3e ed 63 91 bc 16 f9 e4 3d
       0.026018716 0.16240208 -0.017747844 0.11180322
000100 66 2c 5c 3d 5d 0e 49 3d f0 af 81 3d 13 a0 04 be
       0.05375328 0.049085964 0.063323855 -0.12951688
000110 1b 90 08 be 52 08 fc bc 22 dd 11 be fe 42 8f 3c
       -0.13336222 -0.030765686 -0.14244512 0.017487999
000120 32 02 b3 bc 4d ea 0b bd bf 2d a6 3d 7e 64 e4 bd
       -0.021851633 -0.034158994 0.08114194 -0.1115198
000130 41 75 d2 bd 02 80 9c 3d 9c a8 47 3d 6a 6b 84 3d
       -0.10276271 0.07641603 0.048744783 0.064658
000140 cb 58 0f bd 06 29 9e bd 8b d2 a8 3c 88 44 8e bd
       -0.03499679 -0.07722668 0.020608207 -0.06946665
000150 2f 5f e0 3d 6e a0 20 3d e2 ce c6 bd 8c 35 25 be
       0.10955655 0.039215498 -0.097074285 -0.16133708
000160 b0 17 8e bc 7f c7 7c bd a1 bb 21 3c a0 95 20 3d
       -0.01734528 -0.06171369 0.009871394 0.039205194
000170 21 41 be 3c 91 ae f6 bc ce 98 64 3d 63 de 3a bd
       0.023224415 -0.030112537 0.05580979 -0.04562224
000180 e8 1b dd 3d d0 88 a5 3d f3 e6 cb 3d 31 81 5e bd
       0.10796338 0.080827355 0.099561594 -0.054322425
000190 21 c9 21 3d 34 c6 bd 3d 9f ee 77 3c ef 53 3a 3d
       0.039498452 0.0926632 0.015132575 0.0454902
0001a0 fe 4c 03 bd 4d ef 42 3d 0d df a7 3c 62 b5 13 3e
       -0.032055847 0.047591496 0.020492101 0.14424661
0001b0 8b 93 a9 3c 93 76 b6 3c 45 08 dc bd de fe e0 bd
       0.020700237 0.022273337 -0.10743765 -0.10986112
0001c0 db 6c 8e 3d a8 b5 b3 3d 45 ff be bd c2 9c 1c 3d
       0.06954356 0.087748826 -0.093260325 0.038235433
0001d0 04 9c 9c bd f0 ec 0a be 39 72 c7 3d 7a c0 ab 3d
       -0.07646945 -0.13566947 0.09738583 0.08386321
0001e0 52 ae fa 3d 63 ff 8b 3d 4f 35 4c bd b1 e6 77 3d
       0.1224028 0.068358205 -0.049855527 0.06052274
0001f0 9e 50 5b 3c e8 06 c3 3d 38 89 ab 3d e1 66 f0 3c
       0.01338592 0.09522802 0.08375782 0.029345931
000200 d8 d2 04 bd 03 b8 82 bd fd 37 9c 3d b1 c0 82 3d
       -0.03242764 -0.06382754 0.076278664 0.06384409
000210 09 d0 3f bd ac 46 54 bd 82 89 19 bd dd 9f 96 bd
       -0.046829257 -0.05182521 -0.037484653 -0.0735471
000220 5d de a0 3c d9 d7 39 bd 0c 9b b6 3d b2 25 69 bd
       0.019637281 -0.045371864 0.089162916 -0.056920715
000230 9a 60 36 3d 1b 83 69 3d 77 23 51 bd fa 3e a8 3c
       0.04452572 0.057009798 -0.051059213 0.020537842
000240 4c a1 b3 bd 6d 39 b4 bc dc a8 08 be 3a f3 8e bd
       -0.08770999 -0.022000039 -0.13345665 -0.069799855
000250 3a 9c c8 bd fa af 8d bb 73 5e fc 3d 5f 62 64 bd
       -0.09795423 -0.0043239566 0.12322702 -0.055757876
000260 3c 24 f0 bc ce 78 1d bb 5a ae 8e 3c db 4e 4e 3d
       -0.029314153 -0.0024028304 0.017417122 0.05036817
000270 1a cf 22 bd 03 d5 65 3d 7a 94 c1 3d 6c d3 9b bd
       -0.03974829 0.056111347 0.09452148 -0.07608685
000280 9b 93 97 3a 14 59 ab 3d fe 8f 40 3d 09 91 b3 3c
       0.0011564376 0.083666 0.04701232 0.021919744
000290 64 4d 20 3d da ff 9c bd 6c 9d 9a bd f1 a0 58 bc
       0.039136305 -0.07665987 -0.07549557 -0.013221965
0002a0 e9 a3 ac 3d ec 9b 5e 3d 20 45 8d bd 6e a9 ec bc
       0.08429701 0.054347917 -0.0689795 -0.028889384
0002b0 bf 50 53 bd 40 de 6d 3d b2 4d 34 3d 08 e7 c7 bd
       -0.051590677 0.058073282 0.04401941 -0.097608626
0002c0 9d 1f 9e 3c 66 e8 c3 3d ca 9a 5a 3d 0d 96 2f bd
       0.019302184 0.09565811 0.053370275 -0.04286771
0002d0 73 c4 52 bd ed a2 2c bd 99 6d 06 bd 07 b6 0a 3c
       -0.05145688 -0.042147566 -0.032819364 0.00846625
0002e0 3a 96 71 bd 12 b5 12 bd 41 49 6e 3d 25 61 8d bd
       -0.058981158 -0.035817213 0.05817533 -0.069032945
0002f0 58 cc b8 bd b3 3c 7d 3d 53 da 41 3d 01 31 08 bc
       -0.090233505 0.061825465 0.04732735 -0.008312465
000300 54 23 db bc 4d cd bf 3d 7a fc 39 ba 0c 1b d3 bc
       -0.026750244 0.0936533 -0.0007094812 -0.025769733
000310 a2 0b ff bd 77 c1 2d 3d d8 68 fe bd b5 07 09 be
       -0.12453391 0.04242083 -0.12422341 -0.13381846
000320 2b 4c f9 bd 4b 19 97 3d 4e 9d da bc a3 43 a0 bd
       -0.12172731 0.07377871 -0.026686337 -0.07825401
000330 e7 d3 04 be cf f1 e2 bc bc 8a 23 be ce 55 be ba
       -0.1297146 -0.027703194 -0.15970892 -0.0014521421
000340 45 2a 88 3d 51 88 81 3d 8e 73 01 be c8 27 5d 3d
       0.06648687 0.063248284 -0.12641737 0.053993016
000350 49 d4 da 3d 2a e1 ae 3c fc 89 1b 3d 0e 32 54 3d
       0.106850214 0.021347601 0.03797339 0.05180555
000360 41 30 b3 3d 96 e0 cc bd 98 29 83 3d 9c 8f 90 bd
       0.08749438 -0.10003774 0.06404418 -0.07058641
000370 28 f2 a7 3d 45 1c a9 3d c9 2e 61 3a cf 6a fa bd
       0.082004845 0.08257345 0.00085900404 -0.12227403
000380 7f 4b 9c bc bb 7f bb 3d 39 31 28 3c 3d 3c 83 3d
       -0.019078968 0.09155222 0.010265642 0.06407974
000390 ed 02 09 3e f7 97 11 be e3 2a dc bc c3 42 c9 bd
       0.13380022 -0.14218126 -0.026875919 -0.09827187
0003a0 82 97 c8 3d 47 b9 e3 bd 70 c2 e0 3c 02 ee c4 bc
       0.09794523 -0.11119323 0.027436465 -0.024039272
0003b0 dd 1d 07 bd b1 33 8f bd 21 72 b8 bd 38 40 3f 3d
       -0.032987464 -0.06992281 -0.09006143 0.046692103
0003c0 21 96 3f 3d 2f f7 1a be 7d 47 8f 3c a6 df ad 3c
       0.046774033 -0.15133356 0.017490143 0.021224808
0003d0 e1 af fc bd 9f 7b 0b be 59 72 13 3c 42 07 13 bd
       -0.12338234 -0.13621376 0.008999431 -0.035895593
0003e0 ab 75 38 3c 2f e6 f2 3d 7b 41 50 3d 5d 5b 88 3d
       0.011258523 0.1186031 0.050843697 0.06658051
0003f0 86 43 df bd 8a 3e 1c 3e de aa 0b 3d 3d 43 c1 3d
       -0.10901551 0.15258232 0.0340985 0.09436653

lstm.weight_ih_l1 f4 [256, 64]
000000 b1 0f 01 3e fc 0e 95 3d 85 de 9f 3d 2d 40 6e bd
       0.12603642 0.07278249 0.07806114 -0.05816667
000010 bc d1 ed 3c 9b a4 f1 bd 4d 53 cc 3c 7c fd 83 3c
       0.029030673 -0.11798974 0.024942065 0.016112082
000020 a5 c5 2d bd 12 ba a3 bd 55 69 89 bd 88 86 5e bd
       -0.042424817 -0.079944745 -0.067095436 -0.054327518
000030 7e 74 f1 3c 33 81 8b bd 2a 55 e3 3d 87 22 55 bd
       0.029474493 -0.06811752 0.11100228 -0.05203488
000040 62 5c fe ba 57 a4 06 bd ef dc b0 3d 1d 97 de 3c
       -0.0019406194 -0.03287157 0.0863589 0.027171666
000050 f7 07 7b 3d c5 a0 96 bd e2 01 19 3d 8b bf 3e 3c
       0.061286893 -0.07354883 0.03735531 0.011642347
000060 ca f6 c3 3d b3 5a 9f bd b9 62 66 3d ee ab 0e 3b
       0.09568556 -0.077809714 0.056246493 0.0021769959
000070 8f 2c ad 3d d2 dd d4 bc 21 70 6b bd eb e5 03 3e
       0.084557645 -0.025984678 -0.05747998 0.12880675
000080 bd a0 76 bc 13 88 fe bd b5 0a a8 bd 7d 29 a3 bd
       -0.015052971 -0.12428298 -0.08205167 -0.07966898
000090 93 34 0d bd af 1d b8 3d 3a 68 00 3e 9d 7e a3 bc
       -0.034473967 0.08990037 0.1253976 -0.019957835
0000a0 ff 03 b5 bc 6b e0 d6 3d 0c b8 5b 3c 1c be cc 3d
       -0.022096632 0.10492023 0.013410579 0.09997198
0000b0 09 4b 2d bc 2a b6 01 bc 7c a1 d1 3d 93 21 7d 3c
       -0.010576972 -0.007916966 0.10235879 0.015449899
0000c0 68 32 b9 3d 58 8b 2b 3d bb 08 d2 3d c7 2a a2 bd
       0.09042817 0.041880935 0.102555715 -0.079183154
0000d0 89 17 00 bd 7e 09 3b bd a1 6b c3 bd f1 49 11 3d
       -0.031272445 -0.04566335 -0.09542013 0.035470907
0000e0 5a 29 36 bd 22 6a 04 3a 84 d0 a2 bd 5f f1 dc 3d
       -0.04447303 0.00050512154 -0.079499274 0.107882254
0000f0 16 b6 42 3c 13 78 1d bd 38 cc 53 3d 72 c1 d0 bd
       0.011884233 -0.03844459 0.05170843 -0.10193147
000100 0c a1 8c 3c a1 11 9b bb 98 a4 40 bd 20 bf 06 be
       0.017166637 -0.004732326 -0.04703197 -0.13158846
000110 35 fd 4b 3d 73 66 89 3c 14 ed 3b 3c 53 d5 40 3d
       0.049802024 0.016772484 0.011470098 0.04707844
000120 7c ca 8b 3c ab bf 6b bd e7 1d e6 3c 56 ca 91 bd
       0.017064326 -0.057555836 0.02809043 -0.07118671
000130 38 e3 2f 3d e0 55 b8 ba cd 5e 4c 3c 8d fb c4 3b
       0.042941302 -0.0014063679 0.012473774 0.0060114325
000140 bb 5a 3a bd ea 26 ed bd 69 20 3e bd 41 f6 a7 3d
       -0.045496684 -0.11579688 -0.046417627 0.08201266
000150 4a 16 39 bd f0 21 2e 3c b9 7d 2f bd 27 a6 3e bd
       -0.045187272 0.0106282085 -0.042844508 -0.046545174
000160 d0 29 01 3e 7a d5 d1 3d 31 bc ae 3d d1 19 99 bd
       0.12613606 0.102457955 0.085319884 -0.07475627
000170 b3 73 04 3d 8f f4 01 be d6 78 33 3c 99 36 c1 3d
       0.032336902 -0.12690948 0.0109541025 0.09434242
000180 d0 2a a6 bc 50 07 76 bd 56 68 60 bb db dd 27 bd
       -0.020284086 -0.060065567 -0.0034241877 -0.040983062
000190 2d 55 04 3e 03 e2 31 bd b5 28 a4 3b bb 22 a9 3b
       0.12923117 -0.043428432 0.0050097355 0.005161611
0001a0 54 08 5e 3d 62 0c 91 bc 9e 95 0f 3e 6c 7d 4e 3d
       0.05420716 -0.0177061 0.14021918 0.05041258
0001b0 27 6e 15 bd 6f 1a b9 bd 6e c6 d7 3c 96 d5 88 bd
       -0.036482003 -0.09038245 0.026339736 -0.06681363
0001c0 e2 90 02 be 23 ee a4 3d a3 58 64 3d a3 6a a6 3d
       -0.12750581 0.080532335 0.055748593 0.08125808
0001d0 2a d3 67 3d a0 a7 9f bc d5 ff 68 bc c8 76 90 3d
       0.056597866 -0.01948911 -0.014221151 0.07053906
0001e0 28 c8 e4 3d be c6 58 3d e1 58 40 bc 14 0a eb 3d
       0.11170989 0.05292391 -0.01173994 0.114765316
0001f0 5a f5 e8 3d a2 94 ab 3d e5 76 84 bc 4f 99 df bc
       0.11374922 0.08377959 -0.016169975 -0.027294783
000200 d1 f3 76 bd dd 8b bc 3d 5c b8 b5 ba ce 1b 67 3c
       -0.060291115 0.09206364 -0.0013864147 0.01410575
000210 8d de 43 bd 87 21 2a bd e3 85 af bd 8f 46 e3 3d
       -0.047819663 -0.04153588 -0.08570459 0.11097442
000220 cb a2 a9 3d d7 dc 0a be 4b 61 81 3d 25 a3 81 bd
       0.082830034 -0.13560806 0.06317385 -0.063299455
000230 e8 2e 7f 3a 17 1d a9 bd 3e c2 7c bb e8 03 95 3d
       0.00097344676 -0.082575016 -0.0038567926 0.07276136
000240 e0 d7 28 bd d0 b0 68 3d 0c c0 c3 bd 8c 0e 1d 3d
       -0.0412215 0.056809247 -0.095581144 0.03834395
000250 c9 90 ab bd e1 99 e1 bd e3 a8 86 bd aa af 12 3d
       -0.08377225 -0.11015678 -0.06575181 0.035812058
000260 e8 d4 e4 3b 15 84 ad 3d bd 79 03 be 15 ba ea bd
       0.006983388 0.08472458 -0.12839408 -0.114612736
000270 77 3f 89 bd b0 89 83 3b 2a 1d ef bd 68 a4 02 be
       -0.06701558 0.0040142164 -0.116754845 -0.12758029
000280 b3 74 cd bd 6c 5e 79 3d 7c 78 dd 3d 9d 71 53 3d
       -0.10032024 0.060881063 0.10813996 0.051622022
000290 84 3e f1 3c dc 1f 02 3e 06 46 81 3d 36 ad b5 bd
       0.029448755 0.12707466 0.06312184 -0.08870928
0002a0 ce 6a a1 bc 2e cf b0 bc d5 e2 20 bd 86 29 1f 3c
       -0.019704249 -0.021583166 -0.039278824 0.00971449
0002b0 df c7 51 3c 94 9f b1 3d 4c d0 ca bd 1d 81 3c 3d
       0.012804001 0.08673015 -0.09903011 0.04602157
0002c0 77 6e 25 3d ec 77 55 3d 56 fa e1 3d b2 20 a3 3b
       0.04038855 0.05211632 0.11034076 0.004978263
0002d0 ed 59 65 3d c9 68 18 3d 30 54 47 bd 1c 20 d2 3c
       0.055993963 0.037209306 -0.04866427 0.025650077
0002e0 0e 19 74 3d dd d7 cf bd af d4 57 bd b1 62 b2 bb
       0.059594207 -0.101485945 -0.052693065 -0.005443894
0002f0 f4 1d b7 bd ad 87 af 3d 23 ad 0f bd bb 79 7c 3c
       -0.0894126 0.085708 -0.035077225 0.015409882
000300 f2 5c f9 3d c1 ca b4 3b ce 1d 09 bd f6 73 70 3d
       0.12175931 0.005517334 -0.03347569 0.05870434
000310 71 cb c1 bd a1 21 fd bc 56 5c f0 3d 54 d2 3e 3d
       -0.094626315 -0.030899825 0.11736362 0.046587303
000320 6f db 02 be 04 e9 a5 3c b0 26 68 bb b3 a8 16 3d
       -0.1277902 0.020252712 -0.003542345 0.036781978
000330 7d 52 8c 3d 4a 5c 83 bd 3c ee a4 ba c2 0e ea 3d
       0.06851671 -0.06414087 -0.0012583206 0.11428596
000340 b7 10 64 3d af a6 ba bd 9f 99 65 bd 38 00 1e 3d
       0.055680003 -0.091138236 -0.056054708 0.038574427
000350 fc c1 12 3c 8d 87 b9 bd 32 e6 d6 3c bb 7f ea 3d
       0.008957382 -0.090590574 0.026232813 0.11450144
000360 c0 e0 ba 3d c0 55 23 bd 56 52 55 3d 34 72 91 bd
       0.09124899 -0.0398767 0.052080475 -0.07101861
000370 69 da 19 bc 43 7c 56 3d d9 3f 96 bc 40 78 a2 39
       -0.009390452 0.0523646 -0.018340992 0.0003098864
000380 11 4d df 3c 1a 77 82 bc 2a c6 da bd 64 91 3d 3d
       0.027258428 -0.015925933 -0.10682328 0.046281233
000390 ac b0 d0 bd 04 24 b5 bd 32 b6 b2 3c a9 0a 54 bd
       -0.101899475 -0.0884476 0.021815393 -0.05176798
0003a0 e8 2b e1 3c b8 60 f7 3d 96 13 84 bc 97 33 50 3c
       0.027486756 0.120789945 -0.01612262 0.0127076125
0003b0 9b f6 59 3d d1 a6 8d 3d 54 8c c6 bd 8f 7b 05 3e
       0.053213697 0.06916583 -0.09694734 0.13035415
0003c0 e6 83 85 bd 50 3a 49 3c a1 3b 9e bd 81 91 3e bd
       -0.06519298 0.012281969 -0.07726217 -0.046525482
0003d0 36 1a d2 3c 0b 2f e9 3d 6e 40 57 3d e8 ba 6c bd
       0.025647264 0.11385926 0.05255168 -0.057795435
0003e0 70 8c 56 3d f7 e5 24 3d b6 32 d7 bd 54 62 26 bd
       0.052380025 0.040258374 -0.10507719 -0.040621117
0003f0 18 69 b7 bd 27 8e 80 3d 72 13 f0 3b 68 4d 0b 3d
       -0.08955592 0.062771134 0.007326537 0.034009367

lstm.weight_hh_l1 f4 [256, 64]
000000 0e 71 a8 3d cd 28 95 bd 41 89 3d 3d 85 cc d2 3a
       0.082246885 -0.07283173 0.046273474 0.001608268
000010 d4 7b 41 bc bf 1f 1f 3d 99 2e ba 3d d8 79 1e bc
       -0.011809308 0.038848635 0.09090919 -0.0096726045
000020 22 fd 03 3b 07 da 8c 3d dc 9a 99 3d 26 d0 a8 3d
       0.0020139893 0.06877523 0.0750024 0.08242826
000030 b7 ad bd bd ba b4 56 3d a7 4f e9 bd 62 1f d1 bc
       -0.09261649 0.052418448 -0.113921456 -0.02552766
000040 0d ee 97 3c f9 36 1a 3b 32 2e 7c bd 9f 2a 01 3e
       0.018546129 0.0023531301 -0.061567493 0.12613915
000050 01 77 cd 3c fb f8 9e 3c fb 7a c0 3d 4f df cb 3c
       0.02508116 0.019405833 0.09398457 0.024886755
000060 49 a0 8f 3b 58 39 9f bd 70 e2 08 bd 25 22 45 bc
       0.004383121 -0.07774609 -0.033419073 -0.0120320665
000070 36 af a9 3d 2a c7 9e 3d 6b dd d0 bd 51 48 05 be
       0.08285372 0.07752831 -0.10198482 -0.13015868
000080 30 a4 74 bd fd 54 a7 bd 92 77 1b bd 45 b8 02 3d
       -0.059726894 -0.08170507 -0.037955828 0.031914014
000090 ee 06 c7 3d 76 48 d0 3d 85 f5 92 bd 37 43 64 3d
       0.097181186 0.10170071 -0.071757354 0.055728164
0000a0 d1 78 0c 3e 5c 01 1b bd 2b c1 93 3d 50 76 fd 3a
       0.13717963 -0.037843093 0.07214578 0.0019337628
0000b0 ff 58 b5 3d 77 4b 93 3d 7e 60 82 bd b2 54 4a bd
       0.08854865 0.07192128 -0.06366061 -0.049397178
0000c0 72 e2 60 bc 25 0d 61 3d 00 95 e5 3d 3e 5f b8 bd
       -0.013725864 0.054944176 0.1121006 -0.09002541
0000d0 8d 54 e5 bd 14 9e ab 3d 3d db 52 bd 27 08 f9 bd
       -0.111977674 0.083797604 -0.051478613 -0.12159758
0000e0 9f 75 ec 3d 8a 65 ef 3d ce c1 b7 3a ba af f4 bd
       0.11545872 0.11689289 0.001401955 -0.1194758
0000f0 d8 60 91 3d 0f 86 e8 bd 19 ce ec bd df 5d 26 3c
       0.070985496 -0.11353695 -0.115627475 0.010154217
000100 a7 0b 80 3c cf 5d 61 bd 68 18 b4 bd e2 fc fa bb
       0.015630556 -0.055021103 -0.087937176 -0.0076595405
000110 3f dd ac 3d c8 4c 95 bc cf 5b 15 be b8 98 29 3b
       0.08440637 -0.018225089 -0.14585803 0.002587838
000120 5c 06 cd 3d c0 3b f0 bd e1 88 d7 3c 4f ca ec 3c
       0.100109786 -0.117301464 0.026310386 0.028905062
000130 b3 5a f5 bb 9e f0 a9 bd d0 84 b9 3d 68 a9 96 bd
       -0.007487619 -0.08297847 0.09058535 -0.073565304
000140 33 09 09 3d ac dc d0 bd 05 7d b0 3d ba 70 9f bc
       0.03345604 -0.1019834 0.086175956 -0.019462932
000150 b3 f5 aa bd ec b8 0c 3d eb 53 28 bd 62 19 99 3d
       -0.08347645 0.034356043 -0.041095655 0.074755445
000160 c2 ab 9e bd de 31 e5 bc 47 7e 76 3d c0 88 af bd
       -0.07747604 -0.02797788 0.06017902 -0.08571005
000170 dd 2a a8 bc 23 e0 77 bd fa 07 87 3d ef eb c4 3d
       -0.020528251 -0.060516488 0.06593318 0.09615313
000180 9b 5a 89 bc 21 b9 f0 3c 1c ce 14 bc d4 0e 20 bc
       -0.016766837 0.029385151 -0.009082343 -0.00976916
000190 c5 65 80 bd 04 f6 bc 3d 44 8d 6f bd 98 2c 07 3e
       -0.06269411 0.09226611 -0.05848433 0.13200605
0001a0 b8 af f5 bd cd 70 aa 3d 67 af 96 bd 33 f7 e6 3c
       -0.11996406 0.08322296 -0.07357674 0.028194046
0001b0 1c 63 00 3e 0a b0 ab 3d 27 22 42 3d 67 34 ae bd
       0.12537807 0.08383186 0.04739585 -0.08506089
0001c0 89 e5 8c 3d 39 20 f9 bc 10 00 4a bd 54 03 31 3c
       0.06879718 -0.030410873 -0.049316466 0.010804016
0001d0 fb bf 19 3d 73 83 2e bd 7a 1a c9 bd 31 69 27 3d
       0.037536602 -0.04260583 -0.09819503 0.040871803
0001e0 70 7c 45 bc c3 e8 e2 bb 46 cb d8 ba 80 8b 97 3d
       -0.012053594 -0.00692472 -0.0016540072 0.073996544
0001f0 3b dd ca bd bf 67 c7 bd 60 af a9 3d d8 dd 8d bd
       -0.099054776 -0.09736585 0.08285403 -0.06927079
000200 8e 9d c0 3d c3 30 3c 3d 6b 24 d0 bd 4a b4 5e bd
       0.09405051 0.04594494 -0.10163196 -0.054371156
000210 48 12 a3 3d 30 ee bc bd 03 55 93 bd b4 63 d5 3d
       0.07962471 -0.09225118 -0.07193949 0.104194075
000220 72 a8 45 bd 0d 32 09 be 41 94 83 bd a0 e8 6d 3d
       -0.048256345 -0.13397999 -0.064247616 0.058083177
000230 e4 25 21 bb e0 7e 59 3d 16 4d d3 bd 38 42 92 3d
       -0.0024589235 0.053099513 -0.10317437 0.071415365
000240 a1 d6 4e bb 2d f1 97 bb 96 ea ba 3d 9b 9f 4c bd
       -0.0031561034 -0.0046369047 0.09126775 -0.0499569
000250 29 67 00 3d e2 a4 26 3a 21 8c da bd a0 0a b3 3c
       0.03134838 0.0006356967 -0.10671259 0.021855652
000260 33 c1 5c 3d 42 86 a5 3d c2 61 f1 bc be fe 77 bb
       0.053895187 0.08082248 -0.02946556 -0.0037841047
000270 85 9e d5 3d e9 90 86 bd 6e d4 c8 3c 4f 2e 62 3d
       0.10430626 -0.06570608 0.024515357 0.055219945
000280 fa f6 d2 bd 5b bc 98 bd a7 ef 00 3d 69 43 60 3d
       -0.10301013 -0.07457801 0.03147855 0.054751787
000290 6d 12 d1 3d 25 e6 3f bd 4a 62 06 be 20 4a 8c bc
       0.102085926 -0.046850342 -0.13123432 -0.01712519
0002a0 df ed 00 3e cb 58 e9 3d 2d 7f a7 bd b8 5f bd 3d
       0.1259074 0.11393889 -0.08178554 0.092467725
0002b0 bb 93 a5 3c d4 63 00 3e d2 da 1b 3d ee 4d 96 3d
       0.020212045 0.12538081 0.03805048 0.07339083
0002c0 45 8d 0c bd 08 bb e8 3d 30 5c e1 bc cc a7 e1 bc
       -0.034314413 0.113637984 -0.027509779 -0.027545832
0002d0 b0 72 c1 3d fd 44 f9 bb 0f 0b f6 3c 63 0d 00 3e
       0.09445703 -0.007607101 0.03003457 0.12505107
0002e0 f4 03 a5 bd 42 7b 0e 3e 0d fd cd 3c dd 26 ab bd
       -0.080573946 0.13914207 0.025145078 -0.08357022
0002f0 80 72 ab bd 3e e2 bd 3d 4b c6 7e bd 34 b0 08 3d
       -0.083714485 0.09271668 -0.062200826 0.033371165
000300 a0 51 36 bd 46 19 bb bd dd 10 a9 bd 4f 3e 37 3c
       -0.044511437 -0.0913568 -0.082551695 0.011184289
000310 7b 54 9e 3d 38 ed f6 3c a3 bd 75 3d e0 34 8f bd
       0.07730957 0.030142412 0.059995305 -0.06992507
000320 3c 58 14 3e 16 8b eb bd 90 57 5b bd 62 79 48 bd
       0.14486784 -0.11501138 -0.053550303 -0.048943885
000330 75 d0 c8 3d 9b 56 42 bc 61 5b 1e be c2 ae 6e bd
       0.09805385 -0.011861469 -0.15464546 -0.05827213
000340 40 4c 99 bd d3 f7 ec 3d 05 2a bf bd b3 77 15 bd
       -0.07485247 0.11570706 -0.093341865 -0.036491107
000350 d0 39 8d 3d dd ac c1 bd c3 be 59 bc 46 9b f8 bc
       0.068957925 -0.09456799 -0.01329011 -0.030347478
000360 6c b8 90 3c da 40 86 3d d4 c3 e5 3d 80 12 e2 bd
       0.017666064 0.06555338 0.11218992 -0.11038685
000370 80 93 24 39 11 ad 1d bc eb b3 60 bc f3 04 5a bd
       0.00015695207 -0.009623782 -0.013714771 -0.053227376
000380 a5 63 6c 3c 89 da bb bc 30 8e bb 3d 09 65 07 3d
       0.014428054 -0.022931354 0.091579795 0.03305534
000390 c0 37 dd 3c 95 ec 2c bd 7d 90 02 3d 26 28 5e bd
       0.027004123 -0.04221781 0.031876076 -0.054237507
0003a0 1a ce ad 3c 3d 48 10 be 40 bf 68 3c 91 d3 3f 3d
       0.021216441 -0.14090057 0.014205754 0.046832625
0003b0 89 b7 32 3d 8c 33 cf 38 6f 32 00 3e 45 4c e8 3d
       0.043632064 9.8801305e-05 0.12519239 0.11342672
0003c0 42 3d b7 bd e0 a5 4b bd 8d 52 00 bd 15 d4 e7 3d
       -0.08947231 -0.049718738 -0.031328727 0.11319748
0003d0 39 6a a4 bd 24 2d e9 bd 3f 2e 0f 3c 23 15 ba bd
       -0.08028073 -0.11385563 0.008739053 -0.09086063
0003e0 ef 54 f5 bc 85 c7 87 3d 77 8f d4 bd 73 fe 9b 3d
       -0.029947726 0.06629852 -0.10378926 0.07616892
0003f0 c9 14 a9 bb 3f 03 91 bd 0b 1d bf bd dd 6c 8b bd
       -0.0051599485 -0.07080697 -0.093317114 -0.068078734

lstm.bias_ih_l1 f4 [256]
000000 47 0e 9b bd 1d b1 93 bc 87 ab 93 bd 37 86 7a 3c
       -0.075710826 -0.01802879 -0.072104506 0.015290788
000010 9f f6 a8 bd 38 1f 52 3c ed 81 e1 3c f9 e5 c0 bd
       -0.08250164 0.012824826 0.027527774 -0.09418864
000020 a4 5a 4a bd f4 af 0e 3d e5 51 ae 3d 20 1a a0 3c
       -0.049402848 0.03483577 0.08511714 0.019543707
000030 11 c3 b0 bd 14 2c bf 3c 5e a6 94 3d 9b d9 84 3d
       -0.08630956 0.023336448 0.072582945 0.064868174
000040 8f 07 51 3d e6 f1 ef bd f7 73 c3 3c df 5b 95 3d
       0.0510326 -0.1171606 0.023859007 0.07292914
000050 c5 ff f0 bd 01 f6 ed bd 93 2b 8f 3b 01 85 00 3e
       -0.11767534 -0.11619187 0.004369208 0.12550737
000060 78 0c f1 bd ab 79 03 bd 4c 00 34 bd ff 9e e4 3d
       -0.11769956 -0.032098453 -0.043945596 0.111631386
000070 a6 e6 06 bb 50 31 20 3d 80 8f 5c 3d 20 77 b6 bd
       -0.0020584255 0.039109528 0.05384779 -0.0890944
000080 fe af b3 3d 5e 28 6e 3d 9e e0 1d 3c e2 05 dc bd
       0.08773802 0.058143966 0.009636072 -0.107433096
000090 12 44 da bd 32 a7 01 3d dd 18 c2 bd 36 67 e2 bd
       -0.10657515 0.03165359 -0.094773985 -0.11054842
0000a0 78 0a a4 bd 44 ae e0 3c 65 50 27 3d b2 8f 52 3d
       -0.08009809 0.027426846 0.040848155 0.05140657
0000b0 f5 d1 8f bb 5b a0 a9 bd a5 75 bc bd 63 fa 5a 3d
       -0.0043890425 -0.082825385 -0.092021264 0.053461444
0000c0 35 ac 88 3b 41 4e 3c bd 0a 2e a7 3d 4e 79 57 bc
       0.0041709193 -0.045973066 0.08163078 -0.01315148
0000d0 74 8c bb bd 80 cb 1f bd c8 d6 bb b9 23 72 54 bc
       -0.09157649 -0.039012432 -0.00035827444 -0.012966665
0000e0 0e 0e e5 bd 9f a7 02 bd e3 62 1f 3d d9 82 5b 3d
       -0.11184321 -0.031898137 0.038912665 0.053591583
0000f0 53 c6 c8 bd 12 b9 65 bd 4c 12 03 be 08 55 ec bd
       -0.09803452 -0.0560847 -0.12799948 -0.11539656
000100 40 dd b2 3c 6b fa a9 3d b2 98 8d bd 88 97 e9 3c
       0.021834016 0.082997166 -0.0691389 0.028514639
000110 e4 5e 5c 3d 83 ea 00 be b8 6b 81 bd ab 19 e6 bd
       0.053801432 -0.12589459 -0.06319374 -0.112353645
000120 4e 04 47 bd b5 77 74 bd 20 ab 0d be 62 96 94 3d
       -0.04858809 -0.059684474 -0.1383481 0.07255246
000130 25 68 2e bd 76 b6 a8 bd c5 79 d7 bd 40 b2 cc 3c
       -0.04257979 -0.08237927 -0.105212726 0.02498734
000140 72 43 a1 bd db c3 32 3c 5a 9f 16 bd 82 5a 66 bd
       -0.07874192 0.010910953 -0.036773063 -0.05623866
000150 0b 57 27 bd 59 68 3a bd 23 8b 69 3d 92 cf fe 3d
       -0.040854495 -0.04550967 0.057017457 0.12441935
000160 fe a0 9e 3d f5 c7 30 be 3e 57 9f 3d 50 8b 83 bd
       0.077455506 -0.17263778 0.07780312 -0.06423056
000170 18 6f f6 bd 31 25 b4 3c 03 92 35 bd 4d 4c ee bd
       -0.12032908 0.02199039 -0.0443287 -0.11635647
000180 a2 8e c5 3d 97 74 c1 3d 52 d7 25 bc aa fa 11 3d
       0.09646346 0.09446066 -0.010122137 0.035639443
000190 9e c5 60 3d b1 2e 95 bc 13 74 6b bd ab 07 ad 3b
       0.054875962 -0.01821074 -0.057483744 0.005280455
0001a0 52 2f 0c be ee 0d 91 3a 99 70 cc 3d ff a9 2c bd
       -0.13689926 0.0011066773 0.09982414 -0.04215431
0001b0 4c 50 9e 3d 78 ef d9 bd ef 5a 85 bd 52 19 bb bd
       0.07730159 -0.10641378 -0.06511485 -0.09135689
0001c0 6b 66 d3 bb 6e d0 db 3d 00 43 a3 bd e9 aa 4a 3d
       -0.006451418 0.10733114 -0.079717636 0.0494794
0001d0 c1 84 4f bd 34 d5 ac 3d 70 ca 84 3d 7e 1a 63 bd
       -0.050663713 0.08439103 0.064839244 -0.055445187
0001e0 c0 94 e6 3c 37 ee dc 3c ab b9 0b bd 82 13 8d bd
       0.028147101 0.026969058 -0.034112614 -0.068884864
0001f0 cf 21 32 3d 18 1a 53 3d ad 6c c6 bd a1 4e 80 3d
       0.043489274 0.051538557 -0.09688697 0.06264997
000200 9e 5a fb bc 2f bc 68 bd 13 8a f7 3c a7 7a 87 3d
       -0.030682858 -0.05682009 0.030217206 0.06615191
000210 97 9f e1 3d 10 ad 8d bd 4f e5 cc 3d ce 56 c5 bd
       0.110167675 -0.06917775 0.10004675 -0.09635697
000220 e8 17 c7 bc e1 f1 95 bd 50 02 7a bb e2 14 9f 3d
       -0.024303392 -0.07321525 -0.003814835 0.07767655
000230 9b 1b 63 bd c1 57 80 3d 3f b8 8c bd 4a 0e c4 3d
       -0.05544625 0.06266738 -0.0687108 0.09573038
000240 30 57 0b bc 78 71 09 3d 93 22 c4 bd 43 73 da bd
       -0.008504674 0.033555478 -0.09576907 -0.10666516
000250 51 99 32 bd f1 98 ed 3d 03 b4 96 bd 42 6a f6 3c
       -0.043603245 0.11601437 -0.07358553 0.030079965
000260 1d 42 01 3e 24 a3 19 bd 72 1d b7 3d 30 69 66 3d
       0.12622876 -0.0375091 0.08941163 0.05625266
000270 b2 af bf bd 01 83 97 3d 73 84 5c 3d 1e 42 23 3d
       -0.09359683 0.07398034 0.05383725 0.039857976
000280 9c a8 97 bd 7e 86 53 3c 81 1a 09 3d ec 68 05 bd
       -0.074052066 0.012910483 0.03347254 -0.032570764
000290 18 f3 c6 3c 85 df 44 3d 66 6a 04 bd f0 45 c8 bd
       0.024285838 0.048064727 -0.032328032 -0.097789645
0002a0 76 8d aa 3d eb 9f 7e 3d 53 fd 09 3e ce f2 56 bc
       0.08327763 0.06216423 0.13475542 -0.013119413
0002b0 d9 ba 88 bd 62 11 dd bd 42 e6 b2 bd a9 28 0b be
       -0.06676263 -0.10794331 -0.087353244 -0.1358973
0002c0 e9 ba ed 3c 26 ce 50 bb 4a 65 2c bd 37 bf 81 bd
       0.02901979 -0.0031861155 -0.042088784 -0.063352995
0002d0 48 21 96 3d ef 37 94 bd f6 46 e3 3d bc 31 f3 bd
       0.07330567 -0.07237231 0.11097519 -0.118747205
0002e0 8f c5 04 3d be 40 a8 bd cc 7c 34 bd fd f4 60 bd
       0.03241497 -0.082154736 -0.044064328 -0.05492114
0002f0 83 39 52 3d 59 f0 cf bb 92 78 4d 3c 10 a4 f7 3d
       0.05132438 -0.0063457903 0.012540953 0.12091839
000300 98 76 85 3d 0d 24 b8 3d 24 8b 8f bd f6 39 4e 3d
       0.065167606 0.08991251 -0.07008961 0.050348245
000310 bb ff 6d 3d 86 47 3b 3d 90 b6 00 be 64 12 31 bc
       0.05810521 0.045722507 -0.12569642 -0.010807607
000320 6d b5 01 be 66 c5 41 bd 3f 09 0f bd 4c 72 c9 bd
       -0.12666865 -0.047307394 -0.034920927 -0.098362535
000330 86 97 93 bc a2 15 ce bd 77 5d 03 3d c9 d8 f1 bc
       -0.018016588 -0.1006272 0.032071557 -0.029522317
000340 d5 06 f3 3d 17 08 1e be ee aa 8d bd 4d c0 e4 3d
       0.118665375 -0.15432774 -0.06917368 0.11169491
000350 0b e5 e2 3d 33 01 15 3b da aa f6 bd 69 c9 07 3e
       0.11078843 0.002273631 -0.12044306 0.13260426
000360 de 3c cd bd 38 b3 70 bb 0a 7e cb bc 72 09 91 3c
       -0.10021375 -0.0036727916 -0.024840374 0.0177047
000370 b1 5c 56 bd 44 79 08 bd da 07 07 3e 9d 4d df bd
       -0.05233449 -0.033318773 0.13186589 -0.109034754
000380 4a a6 cf 3d 9d 9c 7d 3d f4 0e 0c be 80 d6 2e 3d
       0.10139139 0.061916936 -0.13677579 0.042685032
000390 cf 6b d6 3d cd a6 1d be ce 0d df 3c b4 62 a4 bb
       0.104697816 -0.1539566 0.027228262 -0.005016649
0003a0 1e 71 bd 3d a4 55 b7 3d 6c f2 7d bd 47 3f 8d bd
       0.09250091 0.089518815 -0.06199877 -0.06896835
0003b0 d8 3b 05 3c 15 45 85 3c 8d 19 98 bc a7 e0 88 3d
       0.008131944 0.016268292 -0.018566871 0.06683474
0003c0 82 30 77 3d 7f a2 ed bd fa fa c8 bd c2 a2 26 bd
       0.060348995 -0.11603259 -0.09813495 -0.04068256
0003d0 97 66 a1 bd 92 18 84 3d 29 fd 8a bb 13 00 02 3e
       -0.078808956 0.06449999 -0.004241605 0.12695341
0003e0 4b 99 2d bc 24 a4 9a bb 53 98 83 3d 66 71 42 bd
       -0.01059563 -0.004719274 0.06425538 -0.047471426
0003f0 d7 eb 16 bd 18 49 d6 bd 1d c6 43 3d f3 3c c4 3d
       -0.03684601 -0.1046316 0.047796357 0.09581938
